DeployToProduction/WineQuality/NN/DLnet_WineData.onnx (onnx, 1903 bytes, 5 tensors)

linear1.weight f4 [10, 11]
00000000: 8900 4fbd 6600 0cbe a38f 483d 2c8f 0e3e
00000010: 3970 4ebd 3423 43be eaaa 473e 7f5d 64bc
00000020: f0c6 573e 569f cc3c 34da 0e3e bc60 b43e
00000030: 764a abbe 6436 53bd a170 83bc 3b92 043e
00000040: 1eb3 213d 8ae1 6cbe 86f9 5bbe dc03 1ebd
00000050: c01c 673b 5cc3 fc3d fba3 ecbb a368 0cbe
00000060: f127 13be 95f6 fe3d 28f2 92bd 3e8f 90be
00000070: 8838 443e 2704 6e3e 8efb b9be 1ffd 20be
00000080: a23b 9b3e 77b3 013c f4c2 0ebe b541 373e
00000090: 54d3 a13e 2dc1 8fbe 99cb f53c fc11 87be
000000a0: b5d1 b8be 833d a73e 1b95 783e 57c5 f83e
000000b0: a767 7b3e f0f9 843e 1974 8dbe 3ebc 49be
000000c0: fdff 92bd ae7f 08bf f200 dfbd 25a1 2abe
000000d0: b620 84be bb0c aabd 1821 2dbf e48a 23bc
000000e0: c7d6 c23d db33 9abc e362 22be b6f6 0a3c
000000f0: 1816 463e 0a89 f93d 6b11 3ebd 3908 253c
00000100: cd07 ffbd 36e9 4cbe 1427 dd3d 38ae 2f3f
00000110: 3493 90bd f597 0c3e 7279 b1be 07c3 413e
00000120: 20a1 edbb ac71 dabe a859 613e dbba 393e
00000130: 56ff f83d afa0 9bbc cc1f 40bd 9735 5b3d
00000140: f490 14be ac70 143e 45ef 303d 3929 52be
00000150: cbfc 5bbd c693 3bbd 4ad1 033e 76f6 84be
00000160: aac3 49bd 7059 73bf 886a 93be 2d17 31be
00000170: 079f 583e 422d 563d 172e 80be d830 84bd
00000180: 3e63 dabe 625b 823e fcd4 5abf 7b06 d13c
00000190: 1095 c93d 7253 7fbd 0294 c03e ec9e a3bd
000001a0: 876d 51bd 0877 cf3d 1a8a 91be 7c96 00be
000001b0: 3e09 1fbe 53f3 47be
-0.05053762 -0.13672027 0.048965108 0.13921803 -0.050399993 -0.19056398 0.19498792 -0.013938307
0.21071982 0.024978321 0.13950425 0.35230052 -0.33455247 -0.051565543 -0.016044917 0.12946407
0.03947746 -0.23132911 -0.21481904 -0.0385779 0.003526494 0.12341949 -0.0072216964 -0.1371179
-0.14370705 0.124493755 -0.07175094 -0.28234285 0.1916219 0.23243771 -0.36324733 -0.15721558
0.30318934 0.007916323 -0.13941556 0.17896159 0.31606543 -0.2807707 0.03000431 -0.26380908
-0.36097494 0.32664117 0.24275629 0.48588058 0.24551259 0.25971937 -0.27627638 -0.19700715
-0.07177732 -0.53319824 -0.10888852 -0.16663034 -0.25806206 -0.083032094 -0.6762862 -0.009981845
0.09513622 -0.018823555 -0.15858035 0.008481672 0.19344366 0.12184341 -0.04640333 0.010072761
-0.1245266 -0.20010838 0.10798469 0.6862521 -0.07059327 0.13729842 -0.34662968 0.18922053
-0.0072518736 -0.4266485 0.22006857 0.18137686 0.121580765 -0.018997518 -0.046905324 0.053517904
-0.1450842 0.14496106 0.043196935 -0.20523538 -0.05370788 -0.045795225 0.12872806 -0.25969285
-0.049258865 -0.95058346 -0.28792214 -0.17293997 0.21154414 0.052289255 -0.25035164 -0.06454629
-0.4265384 0.25460345 -0.8548124 0.025515785 0.098428845 -0.06233544 0.3761292 -0.07989296
-0.051129844 0.10130125 -0.28425676 -0.12557405 -0.1553087 -0.19526415

linear1.bias f4 [10]
00000000: 3a67 853f 866e 853f ee79 75be a3fb 253f
00000010: acb1 bf3e eec6 8d3f 6f06 013f ab98 3f3f
00000020: c5b5 7d3e a8fb 9d3f
1.0422127 1.0424354 -0.23972294 0.6483709 0.3744024 1.1076334 0.5040044 0.7484233
0.24776371 1.2342424

linear2.weight f4 [6, 10]
00000000: 69fa c03b 4d98 eebc 1690 943e 2e4a 42bd
00000010: f5bd b1be a693 873e 96ca ccbd 5df6 b23e
00000020: 54e0 ff3c 9a84 533e 7bc7 ec3e ffcc d73e
00000030: 69bd 1e3e e788 123f 0380 a13d 60e1 a33e
00000040: f8e8 e33e 7d84 fa3c 7b35 923e 99d7 0f3f
00000050: 9e10 ae3e 7312 223e e6bc 0f3e 79ea 1c3e
00000060: eb02 8cbe e266 013f d032 f63e e5c5 173f
00000070: fb0b 983e cdd1 933e 2199 c9be 279e 92be
00000080: a106 87bf 1ef1 04bf 37ec e2be f2ea 003f
00000090: 433b 073f c823 b9bd 5dd5 b13e c9d0 16be
000000a0: 4a8c a6be 920c 74bd cf97 44bc a00f 7abe
000000b0: 8f18 a9be 0221 8bbe 359f d3bc fc80 0f3e
000000c0: b769 f6bd 5df6 fbbd a510 063f cb6e df3e
000000d0: deef a63e ec72 0fbe 2a2d e4be d694 883e
000000e0: 0e11 9f3b 14fc 2f3e e77f 6bbe 3997 2a3f
0.005889226 -0.029125357 0.2901618 -0.047434025 -0.34715238 0.26479834 -0.09999578 0.34953585
0.031234898 0.20656052 0.46245942 0.42148587 0.15501942 0.57240146 0.078857444 0.32007885
0.4451368 0.030580753 0.28556427 0.5618835 0.33997053 0.1582735 0.14036903 0.15323819
-0.27345976 0.5054761 0.48085642 0.5928634 0.2969664 0.28871003 -0.3937464 -0.28636286
-1.0548898 -0.51930416 -0.44320843 0.503585 0.528248 -0.09040028 0.34733096 -0.14728083
-0.32528907 -0.0595823 -0.011999085 -0.24420023 -0.3302655 -0.2717362 -0.025832752 0.14014047
-0.12031882 -0.123028494 0.5236915 0.43639216 0.3260488 -0.14008683 -0.44565707 0.26676053
0.004854328 0.17186004 -0.2299801 0.66637

linear2.bias f4 [6]
00000000: 5764 4f3f 12c1 333f e921 1f3f f72a 363e
00000010: a796 123e e7ab 193f
0.8101248 0.70216477 0.6216112 0.17789827 0.14315282 0.6002793

linear3.weight f4 [1, 6]
00000000: 6143 983e ab92 0b3f d1c4 2f3f 9139 7cbf
00000010: 4cfa 0dbe 3edf ef3e
0.29738906 0.5452067 0.68659693 -0.9852534 -0.13865012 0.46850008
